backend-python/MachineLearning/models/trajectory_model.onnx (onnx, 181325 bytes, 19 tensors)

const_fold_opt__217 f4 [1, 1, 64]
00000000: e904 62c0 aea3 aa3d 5ebc 2329 e161 48bf
00000010: b127 48bf 3347 16bf 7e93 083e c070 98ba
00000020: a05b e83b 127a e43d 66d1 5140 de46 9f3f
00000030: 70d9 1cc0 f9df 3dbf 8ea4 7cbf e013 e9af
00000040: 5e60 003e a46b 013e 82fb 5e3e d813 cfbd
00000050: e23a 6bbf 6a10 0dbe c065 dc3b 894d ab3f
00000060: 7463 d53e 3cff d4be 217a d43f 4725 013e
00000070: caff bbbd 406a 06bf 12c2 4bbf 209a b6bf
00000080: 806c 3c3b e418 953f 1645 5abe 7777 c83e
00000090: 197a 2ebe c4ca 1ebe 335f 9e3e 57ef 2440
000000a0: 81a7 253f 282a 21c0 88a5 bd3e fc48 9a3e
000000b0: 1dde 07be f598 7bbf 6249 66bf 3ff7 29be
000000c0: e224 27bc e3bd bfbe 6630 b3bd e1ec 5ebf
000000d0: f334 423e ad19 87be e017 7fbe 4376 7cbd
000000e0: 0219 af3e 544d 913d b273 9cbe 1a4f 8a3d
000000f0: 0925 683f 964f 4340 6435 91bd 3c51 1f3f
-3.5315497 0.08332001 3.6356653e-14 -0.7827435 -0.78185564 -0.5870239 0.13337514 -0.0011630282
0.0070910007 0.111560956 3.2784057 1.2443502 -2.4507713 -0.7416988 -0.9868859 -4.2396575e-10
0.12536761 0.12638718 0.2177563 -0.10111207 -0.91886723 -0.13775793 0.0067259967 1.3383037
0.4167744 -0.41600978 1.6599771 0.12611876 -0.09179647 -0.52505875 -0.79593 -1.4265785
0.0028751194 1.1648221 -0.21315417 0.39153644 -0.17038764 -0.15507036 0.30932006 2.5771081
0.64708716 -2.518198 0.37040353 0.30133808 -0.13268323 -0.9828027 -0.89955723 -0.16598223
-0.010201665 -0.3744956 -0.08749466 -0.870802 0.18965511 -0.26386777 -0.24911451 -0.06163622
0.34198767 0.07094827 -0.3055702 0.06753369 0.9068151 3.0517325 -0.070902616 0.6223333

const_fold_opt__212 f4 [1, 1, 32]
00000000: 18fb 313e f538 abbe 118a a73e 6cc2 a7bf
00000010: 1bd6 a9be 1069 2abf 4881 44bf 7e44 e3bd
00000020: 0a4a 923d 5c0b 2dc0 0d70 a83d 4428 333e
00000030: 1b88 f23d af55 dd3f bc60 0fbf 799e 523d
00000040: 44bd 57be 44d4 11bf f2b7 3b40 618d 30c0
00000050: 3a7e 9ebe 11ce 11bf de31 c03f 0412 4ebf
00000060: f47d 6d3d cf55 a83e d473 8abf 7c6e 433e
00000070: 9225 ecbf 304f 4fbf 25db 0dbe 0545 c5bd
0.17380941 -0.33441892 0.32722524 -1.3106208 -0.33171162 -0.6656656 -0.7675977 -0.11097048
0.07143028 -2.7038183 0.08224497 0.17495829 0.11842366 1.7291774 -0.5600698 0.051420663
-0.21068293 -0.56964517 2.9331021 -2.758629 -0.30955678 -0.5695506 1.5015218 -0.8049624
0.057981446 0.32877967 -1.0816598 0.19085115 -1.8448966 -0.80980206 -0.13853128 -0.09632305

W0__87 f4 [1, 128, 64]
00000000: 53ff f8ba 882f 84ba 2733 dea8 4edd 973a
00000010: c88b 17ba f5df e339 8944 383b a1bb a53a
00000020: 8ca7 1bbb bd01 19ba f735 b03a 8009 843a
00000030: bee3 99b9 5faf 9fba d3d4 64b9 b06a 87ac
00000040: 4863 953a 4651 31ba 3a7b 10bb 6aa2 4d3b
00000050: 4000 c8b8 7916 c2b9 a275 b739 f174 6f3a
00000060: fd64 5fba 5ac8 173a a1ce 03ba de39 fb39
00000070: 23fb 1e3b 805f b5ba 2b59 29ba 4041 e43a
00000080: 6303 b93a 171a 34b8 098a 573a 86f2 173a
00000090: a84f f43a 7912 3b3a f80e a5b5 e36a c939
000000a0: 35e3 3aba bc0e e4ba 3e75 7f39 5403 d03a
000000b0: 5a4a 2f3a 8d23 ecb9 bc7c 09ba 4be6 a1b9
000000c0: e91a 2dba e9bd 35b9 0ae7 813b 312f 173a
000000d0: 3bed 7fba c443 3cba 36e4 093b ae7d 5fb9
000000e0: adf1 bbb6 1087 af3a 88cf 64ba ca1d 153a
000000f0: a9c5 1dba 548f be3a baa7 f43a b507 f039
00000100: 1e86 8039 d19d 1d3a 5463 b4a7 1fee 44ba
00000110: 3185 4139 c036 1eba 8cff ca39 9d05 0fba
00000120: 2d34 dbb9 2dbd 263a 46b2 34b9 2315 23ba
00000130: a5ff 6238 440a e9b9 7492 49ba f56a 532d
00000140: ae5d bdb8 c584 dcb7 9279 33ba 1928 29b9
00000150: 4338 5db9 e007 0c3a e26e 11ba 7318 3039
00000160: 4e75 c63a f174 14b9 0853 06b9 5526 083a
00000170: db5c c23a 3f7c 5dba 4c0f 0739 b4b0 db3a
00000180: 6098 1138 83ed 203a ecad 92ba 7098 df39
00000190: 7327 94ba a701 d2b9 ac65 75ba cce1 60b9
000001a0: d8ee a23a 2bf7 543a 9a82 3338 e64b 60ba
000001b0: f938 6e38 c89a c4ba 2d01 85b9 d923 a739
000001c0: 561f cc39 9c48 5a3a a24f 6dba 7a62 14ba
000001d0: ff24 2db9 e573 9438 6171 44ba 2a52 79b9
000001e0: 7987 9039 cca3 8cba adfc 903a 54f7 c43a
000001f0: e535 b73a f5e3 ac38 8a39 c3b9 4fe4 b1ba
00000200: ea22 08bb 9b23 a3ba bcb3 6da8 78e1 f7b7
00000210: b239 85bb bf2f 5dba e4e1 d93a f2bb 25b9
00000220: 1f3d f7ba 23c8 74b8 43db 163a 42c5 bdba
00000230: 84ce 00b9 cf89 aab9 ad0e fdb9 5017 e4aa
00000240: 1100 a239 bef8 ddb9 411d 5fba 8a13 623b
00000250: d81f 90ba 4168 fe3a 9d87 b6b9 18a1 053b
00000260: 68a0 363b 5037 8bb8 ad0e 05bb c77a d8b9
00000270: 03ef 1e3b f7c3 623a c40c bd39 42b0 893b
00000280: d97e 863a ddd1 8d3a 6727 ffba 853c 0c3a
00000290: c33a 6cb9 4e55 b439 5187 14b9 0027 69ba
000002a0: 2876 94ba dde5 12bb 7aad 7b3a dfa3 b33a
000002b0: 5f3b c4b9 7466 31bb ded6 84ba 94a4 db39
000002c0: d874 423b 6832 bbba 87f7 2d3b 7728 713a
000002d0: a12e 9c3a c236 1339 1690 87b9 54cd e2ba
000002e0: 88dd 073a fc20 983a fcd4 68b8 3f4f 253b
000002f0: 2b88 09b9 f977 2c3b 2b11 8638 69d0 9cba
00000300: e6f4 7d3a 9cdd 9b39 5029 3625 b9fa 063a
00000310: 9e34 f4b9 88c3 063a 6f69 37ba 8c19 c839
00000320: 9906 1b3a 3a7f b638 61f5 32ba 7f2f 5bba
00000330: c8e4 913a 64da 483a b58d 1339 c47b b22b
00000340: 7f99 3139 371e 9139 dcb9 06ba 3820 1bba
00000350: 1ae0 923a 79bf e4b9 2e86 2039 def0 29ba
00000360: 55cb 80ba abde 7f39 ebc7 7eba db5c f9b9
00000370: 4777 3ab9 5444 8b3a 367f 8439 1960 243a
00000380: e82f 0ab9 5c58 b7b9 80ba 74b8 46ba 2b37
00000390: 15b2 fc39 b44f 52ba 9e4e 83b9 ff5f f1b9
000003a0: 275c c6b9 6315 f239 61b1 02ba d0de ed39
000003b0: e023 6eb9 5585 f639 7011 01ba 2a4f b4ba
000003c0: 6f36 b1ba 45d5 983a 21e9 8e3a 785a d639
000003d0: b689 6eba a9d9 ff39 3ea2 6b3a 9420 1b39
000003e0: e4b0 07ba 7e22 433a ccaf 85ba d834 77ba
000003f0: 7bbc cfb9 5f92 47ba 6d5a 883a 4836 203a
-0.0018996991 -0.0010084966 -2.4669135e-14 0.001158634 -0.0005781022 0.00043463675 0.0028117022 0.0012644419
-0.0023750989 -0.0005836746 0.0013443817 0.0010073632 -0.00029352115 -0.0012183002 -0.00021823058 -3.8487755e-12
0.0011397386 -0.0006764125 -0.0022046105 0.0031377324 -9.53679e-05 -0.00037019307 0.00034992123 0.0009134552
-0.00085218233 0.00057900476 -0.00050280435 0.00047917565 0.0024258576 -0.0013837665 -0.00064601254 0.0017414466
0.0014115389 -4.2939642e-05 0.0008222168 0.00057963317 0.0018639462 0.00071362365 -1.2297814e-06 0.00038417344
-0.00071291934 -0.0017399411 0.00024362371 0.0015870132 0.00066867995 -0.00045039915 -0.0005244722 -0.00030879895
-0.0006603436 -0.00017332252 0.0039643096 0.0005767225 -0.0009762828 -0.0007181729 0.0021040565 -0.00021313757
-5.601169e-06 0.0013391692 -0.00087284343 0.0005688338 -0.00060185284 0.0014538565 0.0018665709 0.0004578211
0.00024513988 0.0006012591 -5.0067728e-15 -0.00075122894 0.00018455532 -0.000603538 0.0003871884 -0.00054558535
-0.0004180981 0.0006360587 -0.0001723255 -0.0006221106 5.4120686e-05 -0.00044448872 -0.0007689365 1.2017711e-11
-9.0296715e-05 -2.628787e-05 -0.00068464235 -0.00016132033 -0.00021097162 0.00053417496 -0.0005547834 0.00016793776
0.0015141161 -0.00014157944 -0.00012810167 0.00051937 0.0014828698 -0.0008448995 0.00012880302 0.0016761036
3.4712604e-05 0.00061389076 -0.0011190749 0.0004264745 -0.0011303261 -0.00040055552 -0.00093611586 -0.0002144642
0.00124308 0.0008123989 4.2798558e-05 -0.00085562316 5.679668e-05 -0.0014999742 -0.00025368613 0.0003187943
0.0003893326 0.00083268597 -0.0009052699 -0.0005660426 -0.00016512348 7.078777e-05 -0.00074937014 -0.00023777099
0.00027566755 -0.0010729968 0.0011061631 0.0015027323 0.0013977854 8.2440594e-05 -0.00037236168 -0.001357207
-0.0020772764 -0.0012446524 -1.31951165e-14 -2.9549687e-05 -0.0040657157 -0.00084375957 0.0016623107 -0.00015805641
-0.001886282 -5.8360525e-05 0.00057547184 -0.0014478343 -0.00012283964 -0.00032527602 -0.00048266855 -4.0517112e-13
0.00030899097 -0.00042337732 -0.0008511134 0.003449651 -0.0010995818 0.0019409732 -0.00034814785 0.0020390209
0.0027866606 -6.638339e-05 -0.0020302937 -0.00041290207 0.0024251349 0.0008650417 0.000360584 0.00420192
0.0010261192 0.001081999 -0.0019466699 0.0005349594 -0.00022528604 0.00034395832 -0.00014164789 -0.0008894056
-0.0011326717 -0.0022414841 0.000960074 0.0013705454 -0.00037428268 -0.0027069123 -0.0010134836 0.00041893555
0.0029671695 -0.001428199 0.0026545243 0.000919945 0.0011915752 0.00014039411 -0.0002585656 -0.0017303624
0.0005182852 0.001160651 -5.5511468e-05 0.0025224236 -0.00013116065 0.0026316626 6.392816e-05 -0.0011963967
0.0009687677 0.00029729016 1.5799981e-16 0.0005149055 -0.0004657851 0.0005140831 -0.0006996607 0.00038166007
0.0005913764 8.702134e-05 -0.00068267254 -0.00083612645 0.0011130804 0.0007661937 0.00014071802 1.2682013e-12
0.00016937217 0.00027679067 -0.00051393895 -0.0005917582 0.0011205703 -0.00043630207 0.00015308775 -0.00064827304
-0.0009826223 0.00024401645 -0.0009719121 -0.00047562164 -0.00017782777 0.0010625222 0.00025271781 0.0006270423
-0.00013178552 -0.00034970313 -5.8347825e-05 1.0235764e-05 0.00048197867 -0.0008022741 -0.00025044841 -0.00046038625
-0.00037834162 0.0004617377 -0.0004985538 0.0004537017 -0.00022710813 0.00047020116 -0.0004923558 -0.0013756503
-0.0013520251 0.0011660239 0.0010903218 0.00040884665 -0.00090995 0.0004879956 0.00089887145 0.00014794088
-0.00051762 0.00074437994 -0.0010199486 -0.00094301766 -0.00039622546 -0.00076130586 0.0010402926 0.0006111604

W0__66 f4 [1, 256, 38]
00000000: 086e 9cbb 2abc bd39 f464 97ba 6113 a538
00000010: 390d 0a39 015b 5f3a 226a 833a 8c5c 6db9
00000020: 59ce 7db9 bea0 ee39 e260 9439 7a36 18ba
00000030: 0277 803a 5826 8dba 31c8 edb9 f043 4987
00000040: c95c c3b9 c507 003a c507 003a fe67 363a
00000050: a3a0 db39 ad82 063b 09ae c63a 2440 4339
00000060: 33e3 4c3a 9c01 433a a3a0 db39 ad82 063b
00000070: 09ae c63a 2440 4339 33e3 4c3a 9c01 433a
00000080: 4197 6d3a 3053 a53a d57a 02bb a18f d039
00000090: 9f8f d0b9 d00e 0606 d02a f23a 0963 a539
000000a0: 482f deba df44 89b9 f4b8 8a3a f14d 3639
000000b0: 4786 82b9 252f 8ab9 f809 bb39 c152 44b8
000000c0: d867 0b3b b239 7bb9 1b3b bdba b49a 0dbb
000000d0: bc75 a4b9 8096 de86 ddce a2ba 895e 36ba
000000e0: 895e 36ba 9c34 d4b9 e2ac 6f39 5e94 41ba
000000f0: 81f4 0cbb 586e 4339 4eed 90b9 e3a0 303a
00000100: e2ac 6f39 5e94 41ba 81f4 0cbb 586e 4339
00000110: 4eed 90b9 e3a0 303a 9427 a1ba 0671 03bb
00000120: 5e06 2f3b 66f6 0aba 6af6 0a3a 4053 d407
00000130: f407 36ba 62d3 23b9 fc73 b63a f6c6 47ba
00000140: 5146 55ba 993e 203a 59b9 5439 31cb 83ba
00000150: 90dd 5dba a3e7 27ba 7558 27b9 95c0 7eba
00000160: 56b3 25bb a8ce 11bb 4c3f 0438 6046 2a88
00000170: 5ae2 363b 81c0 eeba 81c0 eeba 4ce3 6c3a
00000180: c856 e83a 36b1 703a 1008 f0ba 898b 043b
00000190: 49ca 743a 8b0d a5ba c856 e83a 36b1 703a
000001a0: 1008 f0ba 898b 043b 49ca 743a 8b0d a5ba
000001b0: 1809 0d3b 3375 44bb 517d 8a3a c1d1 22bb
000001c0: c0d1 223b c02a 1808 6531 7dba cf13 e1ba
000001d0: d142 a43a debb 7e38 ac90 1d3b e75a 80b9
000001e0: 8796 c93a 36f9 db38 ab15 d6b9 1879 a73a
000001f0: c282 3d3a 621c bdba 9cf2 22b9 d2df 45ba
00000200: 885d 3db9 56f5 dd07 ec61 6eb9 c057 4fba
00000210: c057 4fba 6a42 6d3a 62ff 36bb 787a fe39
00000220: 5c52 d139 664b c9ba 36b2 07b9 03ba 923a
00000230: 62ff 36bb 787a fe39 5c52 d139 664b c9ba
00000240: 36b2 07b9 03ba 923a f0f3 1fba b2bb 163b
00000250: 1f10 dfba ad0e b03a ab0e b0ba 3b3f d787
00000260: 8a14 49b8 1869 55ba 57c1 e239 6ca7 a93a
00000270: 96be 36ba 6aae f23a a041 5b3b 7e67 a3b8
00000280: 6ff8 90ba da33 c8b8 c0f0 7f36 a763 853a
00000290: 6578 133b 6d45 12ba ea5a 883a b6d9 ca87
000002a0: c270 2ebb e000 db3a e000 db3a c95c 003b
000002b0: 9907 83ba 6dee 6939 5eba 70b9 a415 41ba
000002c0: 2c75 f239 c219 4d3b 9907 83ba 6dee 6939
000002d0: 5eba 70b9 a415 41ba 2c75 f239 c219 4d3b
000002e0: fc99 a8ba 964f feba d174 3c3b dc79 353a
000002f0: d979 35ba 80b8 6307 f43b f23a 5317 bc3a
00000300: e3b1 ffba a62d df3a bf1f f839 fce9 a8bb
00000310: 6b46 e0ba 7b52 293b 42c9 973a c88f 693a
00000320: 465a 3cbb d97c 0f3b f9c3 f63a 47a0 133b
00000330: 7fd7 9a3b 6ce1 1608 cf58 34bb 4a81 75ba
00000340: 4a81 75ba 7d7d 70ba 4eca 833a 8e91 2f3b
00000350: 66d2 d138 1971 4038 70b8 0b3b 87c8 c73a
00000360: 4eca 833a 8e91 2f3b 66d2 d138 1971 4038
00000370: 70b8 0b3b 87c8 c73a 59ad fc3a 6c71 99ba
00000380: b60e 01ba ce40 5239 ce40 52b9 86d9 0d88
00000390: 93d7 823a cbdf eeb9 a4e1 1e3a 3912 473a
000003a0: aa30 8cba 3f62 f3b9 ca4b 74ba 827c 123a
000003b0: 750a cd39 8e68 243a 0ae3 c8ba 7d37 1739
000003c0: 5674 cfb9 1aa4 3738 7733 4aba 1849 4108
000003d0: 8d0a 313a 20ff 10ba 20ff 10ba 9951 1aba
000003e0: c2d7 02bb 7454 7f3b 2f78 bdba ac80 cbba
000003f0: 9246 2f3b e2c5 5b3a c2d7 02bb 7454 7f3b
-0.004773859 0.00036189082 -0.0011550472 7.871423e-05 0.00013165631 0.00085203355 0.0010026137 -0.00022636558
-0.0002420483 0.0004551466 0.00028300943 -0.00058064575 0.0009801092 -0.0010768874 -0.00045353317 -1.5141524e-34
-0.0003726243 0.000488397 0.000488397 0.0006958245 0.0004189062 0.0020524666 0.0015158068 0.00018620543
0.0007815838 0.00074388995 0.0004189062 0.0020524666 0.0015158068 0.00018620543 0.0007815838 0.00074388995
0.0009063371 0.0012613293 -0.001990964 0.00039779863 -0.00039779858 2.521348e-35 0.0018475894 0.0003154504
-0.0016951347 -0.0002618199 0.0010583685 0.00017385908 -0.00024895577 -0.00026356537 0.00035674847 -4.6807112e-05
0.0021271612 -0.00023958719 -0.001443717 -0.0021607103 -0.00031368237 -8.372826e-35 -0.0012421269 -0.0006956836
-0.0006956836 -0.00040474988 0.0002285722 -0.0007384474 -0.002150804 0.00018637755 -0.00027642626 0.0006737841
0.0002285722 -0.0007384474 -0.002150804 0.00018637755 -0.00027642626 0.0006737841 -0.001229512 -0.002005638
0.0026706676 -0.00053009985 0.0005301001 3.1947145e-34 -0.0006943934 -0.00015623638 0.0013920064 -0.0007620895
-0.0008135783 0.00061128434 0.00020286943 -0.0010055063 -0.00084634963 -0.0006405061 -0.00015959314 -0.0009718028
-0.0025283895 -0.002224842 3.1530202e-05 -5.124024e-34 0.0027905912 -0.001821533 -0.001821533 0.00090365554
0.0017726058 0.000918168 -0.001831295 0.002022477 0.0009338004 -0.0012592537 0.0017726058 0.000918168
-0.001831295 0.002022477 0.0009338004 -0.0012592537 0.0021520313 -0.0029977083 0.0010565912 -0.0024844261
0.002484426 4.579109e-34 -0.00096585444 -0.0017172041 0.001253212 6.0733284e-05 0.002404253 -0.0002448179
0.0015379944 0.00010489153 -0.00040833405 0.0012777178 0.0007229262 -0.0014428014 -0.00015539903 -0.00075483054
-0.00018059288 3.339658e-34 -0.00022733927 -0.0007909499 -0.0007909499 0.0009050729 -0.0027923216 0.00048537902
0.0003992495 -0.0015357553 -0.00012940992 0.0011194352 -0.0027923216 0.00048537902 0.0003992495 -0.0015357553
-0.00012940992 0.0011194352 -0.0006101718 0.0023000059 -0.0017018354 0.0013432108 -0.0013432106 -3.2386768e-34
-4.7941263e-05 -0.00081409654 0.00043250129 0.0012943572 -0.00069711485 0.0018515114 0.0033455864 -7.7917226e-05
-0.0011060367 -9.546401e-05 3.8138096e-06 0.0010176793 0.002250218 -0.0005579803 0.0010403071 -3.052154e-34
-0.0026617502 0.0016708635 0.0016708635 0.0019586554 -0.0009996771 0.00022309432 -0.00022957611 -0.00073655904
0.00046245137 0.003129587 -0.0009996771 0.00022309432 -0.00022957611 -0.00073655904 0.00046245137 0.003129587
-0.0012863274 -0.001940238 0.0028756151 0.00069227605 -0.0006922759 1.7131802e-34 0.0018481002 0.0014350213
-0.001950797 0.0017027154 0.000473259 -0.0051548462 -0.001711083 0.0025836516 0.0011580365 0.00089096697
-0.002874033 0.0021894483 0.0018826715 0.0022525953 0.004725396 4.5403965e-34 -0.0027518754 -0.0009365274
-0.0009365274 -0.00091739726 0.0010054798 0.0026789638 0.000100050864 4.5881698e-05 0.002131965 0.0015242257
0.0010054798 0.0026789638 0.000100050864 4.5881698e-05 0.002131965 0.0015242257 0.0019277736 -0.0011706776
-0.00049231516 0.00020051302 -0.00020051302 -4.268634e-34 0.0009982459 -0.00045561636 0.0006060845 0.0007593963
-0.0010695655 -0.0004642177 -0.0009319155 0.0005588011 0.00039108438 0.00062716834 -0.0015326452 0.00014421153
-0.00039568794 4.378343e-05 -0.00077133573 5.8164746e-34 0.00067535863 -0.00055311806 -0.00055311806 -0.0005886793
-0.0019965027 0.003896025 -0.0014455373 -0.0015526018 0.0026744944 0.0008383674 -0.0019965027 0.003896025

W0__108 f4 [1, 64, 32]
00000000: ffb3 1e3b 4326 d13b 7d42 aeb7 ef5d a53b
00000010: 41e4 ce3a 091c 923c 68ba 953c 837e 7139
00000020: 043d 2b3a 1515 8dbc 7d96 243b f48e 4cbb
00000030: f428 cb3b d67b 97ba b3ca 42bc c33b c036
00000040: a0a0 2d3a 5f40 603c 691a 62bc f3a4 1e3c
00000050: d6be dcba eedc ae3b bb0e 43bb 5e36 053c
00000060: 4d1c 923b 4dc5 ac3a 586a 093a 6dc5 68bb
00000070: 939e 593c 3ca8 873c 4db0 8039 42c0 9739
00000080: 042e 7a3b 5e36 23bb 4670 e9ba f2cf aa3a
00000090: 94c4 4eba 81e9 1e3c 6622 263c 2596 e4ba
000000a0: 1a5c 07b9 0bbb 66bb f617 063c c424 a839
000000b0: 4a19 493a c8a5 303a f7fc 81bc 6a5b 88ba
000000c0: 4f7a 423a e916 6c3c a74a 0bbc 73b9 3c3b
000000d0: bd85 c038 8244 a43b 96a9 61b9 786e 513b
000000e0: 488c 92bb f79e 263c 601f 15bb 8318 cdbb
000000f0: 4148 9ab9 732d 5c3c 8913 813b 4542 3cbb
00000100: e31f 44bb 199f 0c3b 8647 d3ba 8a3c ceba
00000110: 5665 22bb ea1d abbb fd14 8dbb ca3e d3ba
00000120: 51a4 3cba 10ed a93b 5cd9 a0bb e427 71bb
00000130: ab79 5aba 619a 933a 7ee9 2c3c ff66 023b
00000140: ea8a 82bb 7e64 6abb 5f0c ea3b d4bb 3e3a
00000150: 0456 15ba 46bd c63a 50ed 86ba 5fe1 70b9
00000160: b94f d93a 5584 e3ba a9b9 e63a 086e ceba
00000170: 339e c63a b923 afbb 34dd 843a 3fa0 93b8
00000180: b0c7 563a fc91 f5b9 7f3d 0e3a 1c4e 463b
00000190: 9d91 af3a ec11 1c3b aa38 023b 0da4 25b9
000001a0: 881c 86ba e32c 303a bbf7 283a 0fe3 ebba
000001b0: 54b8 013b 5211 98ba 91e3 e2ba 3235 683a
000001c0: 698f 9eba 437e 7a39 7e5b 91bb cd7a b13a
000001d0: 94ab 883b a85b 753a ae8c aebb 2251 8a39
000001e0: 2572 d7ba bbfb 12bc 9410 e83b 88a2 b23b
000001f0: 1a93 1d3c 2a42 9c3a df5d 283b a697 8dba
00000200: 715d 433b 7391 333b f71b 64b9 6265 fa3a
00000210: ea8b b238 39b8 4fba 8299 5eba b7f6 803a
00000220: c26c b8b8 ce15 d13a 4eb6 5c3b e494 9e3a
00000230: a434 8a3a 7e71 deba 4288 13bc 135a 2ebb
00000240: 5443 4dba 836e 803a 1585 e9bb a57a 023b
00000250: 2617 2fbb d98e 0c3b 6a82 5ebb 3fcf 093b
00000260: 5f0e 9ebb 7bef 803b 8b1d f4bb c480 9aba
00000270: 8102 bbbb 58b6 9aba 6f3e bf39 3cbd 60bb
00000280: 20e4 443b f367 7e3a 8bb0 d0bb c541 693a
00000290: 3d8f 5bba ff0c 76bb 7be0 4ebb dbbe 933b
000002a0: ecc3 8bbb 8a7c 9a3b 1007 00bc 0aa1 ff39
000002b0: 88de 9cbb 15f3 9abb 0eac 383c c941 be3a
000002c0: 5992 0cb9 e1aa 55bb 1fb2 1b3c b004 813a
000002d0: a31b a93b b406 943b 9c83 31bb 7d37 dd39
000002e0: 431e c8ba b513 563b 20a6 2eba 0319 f33a
000002f0: 6232 ea3a 6f51 9abb 488b aa3b ef3c b5bb
00000300: 7618 6739 18b2 89ba 6c29 b13a cbf4 733a
00000310: b219 813a 0891 e1ba e661 34bb f4aa 5239
00000320: 395e 773a 55e5 0e3b 0e7b b43b b885 f1ba
00000330: 32f5 c33a c703 28ba 4636 33bc dc92 b639
00000340: 4797 dcba 1c57 efba 6f68 92bb 84e6 6e3a
00000350: 6b16 36bb 0cc4 6339 d79f 3f3a 2f90 6cba
00000360: f7ec a8ba 18f4 77ba c28b 083b 5748 453b
00000370: 1268 89bb b098 31bb 7b1f bf3a 0fbf f8ba
00000380: b73b 7bba 6ed7 54ba ed80 19bb a2b3 7f3b
00000390: 1cee 7e3b 820c aa3b eee0 b53b a537 f03a
000003a0: 2cc5 1536 a9b7 573a e728 7c3a 9c6b e0ba
000003b0: 7e19 543b 5b22 1abb 4994 04ba 43ee ca39
000003c0: 3b8f 7dbb bcf7 c43b f082 7ebb 4bed 5b3b
000003d0: 3937 003c b0a4 c73a a8a4 b8bb 8f9b fd3a
000003e0: 941d acba c709 07bb 179c a73b 9293 213b
000003f0: 8548 373c 54b0 d43b 6886 223b 5228 bdba
0.0024216173 0.006382735 -2.0773377e-05 0.005046598 0.0015784578 0.017835634 0.018277362 0.0002303068
0.00065322244 -0.017221967 0.0025114112 -0.0031213136 0.0061999504 -0.0011557292 -0.011889148 5.729003e-06
0.0006623361 0.013687222 -0.013800242 0.009682882 -0.0016841542 0.0053363955 -0.0029763419 0.008130638
0.00445894 0.0013181359 0.00052419817 -0.0035518066 0.013282436 0.016559713 0.00024545417 0.00028944208
0.00381744 -0.0024904232 -0.0017809949 0.0013031943 -0.0007887569 0.009699226 0.010140037 -0.0017439766
-0.00012908914 -0.00352067 0.008184424 0.0003207085 0.000767131 0.00067385705 -0.015867693 -0.001040322
0.0007418738 0.014409759 -0.008501685 0.002879706 9.180184e-05 0.0050130496 -0.00021520848 0.0031956714
-0.0044722892 0.010169736 -0.0022754297 -0.0062590255 -0.00029427002 0.01343857 0.0039390964 -0.0028726023
-0.0029926233 0.0021457134 -0.0016119338 -0.0015734595 -0.002477964 -0.005222072 -0.0043054805 -0.0016116735
-0.0007196116 0.0051857308 -0.0049087238 -0.0036797458 -0.000833417 0.0011261218 0.010553716 0.0019897816
-0.003983845 -0.0035765464 0.007142588 0.00072759134 -0.0005696716 0.0015162609 -0.0010294113 -0.00022972141
0.0016579545 -0.0017358164 0.0017602938 -0.0015749345 0.0015153348 -0.0053448346 0.0010136724 -7.0393544e-05
0.0008193208 -0.00046838808 0.0005426034 0.003025896 0.0013394837 0.0023814393 0.00198702 -0.0001579674
-0.0010231892 0.0006720556 0.0006445606 -0.0017996746 0.0019793706 -0.0011601842 -0.0017310252 0.00088580244
-0.0012097183 0.00023888894 -0.0044359555 0.0013540626 0.0041708443 0.0009359666 -0.005326829 0.0002638186
-0.0016437216 -0.00897115 0.0070820544 0.005451504 0.009617591 0.0011921574 0.0025690717 -0.0010802641
0.0029810334 0.0027399927 -0.00021754192 0.0019103701 8.5137624e-05 -0.00079238747 -0.00084915024 0.0009839152
-8.7940614e-05 0.0015951933 0.0033677998 0.0012098816 0.0010544253 -0.0016971079 -0.009004654 -0.0026603981
-0.0007830162 0.000979856 -0.0071264603 0.0019909528 -0.0026716678 0.0021447449 -0.0033952245 0.002102807
-0.0048234905 0.0039347983 -0.007449811 -0.0011787643 -0.0057070856 -0.001180361 0.00036476876 -0.003429248
0.00300432 0.00097048207 -0.006368702 0.0008898045 -0.0008375531 -0.0037544367 -0.0031566906 0.0045088357
-0.004265299 0.0047145532 -0.007814184 0.00048757374 -0.00478727 -0.0047286847 0.01127149 0.0014515455
-0.00013405959 -0.0032603072 0.009502917 0.0009843316 0.0051607653 0.0045174006 -0.0027086502 0.00042193747
-0.0015267808 0.0032665555 -0.0006662328 0.0018546883 0.0017867798 -0.0047094147 0.005204592 -0.0055309455
0.00022038989 -0.0010505347 0.0013516373 0.00093061914 0.0009849577 -0.001720936 -0.0027524172 0.00020090846
0.00094363425 0.0021804173 0.0055078333 -0.0018426692 0.0014950393 -0.0006409254 -0.010938233 0.00034823164
-0.0016829752 -0.0018260214 -0.004468016 0.0009113329 -0.0027784358 0.0002172144 0.000730989 -0.00090241706
-0.0012888004 -0.0009458675 0.0020835255 0.0030102932 -0.0041933144 -0.0027099065 0.0014581525 -0.0018977838
-0.00095837883 -0.000811926 -0.0023422793 0.0039016982 0.0038899248 0.0051894793 0.0055504953 0.001832713
2.23175e-06 0.00082289666 0.0009619132 -0.0017121914 0.0032363827 -0.0023519013 -0.00050574966 0.0003870596
-0.0038690108 0.0060109776 -0.003883537 0.0033558186 0.007825666 0.0015231576 -0.005634863 0.0019348728
-0.0013131374 -0.0020605193 0.005115043 0.002465461 0.011186724 0.0064907465 0.002479935 -0.0014431572

StatefulPartitionedCall/sequential_1/dense_1_2/Cast/ReadVariableOp:0 f4 [8, 3]
00000000: d262 943f 4f48 dd3e 402d db3d df90 dcbe
00000010: 5c64 333e a3f2 f23f 136c 67bf b6b5 75bf
00000020: 5b2b e8bb 0a30 9e3e 191b d5bd 9d2b b6bf
00000030: 813f 373f d9d1 8bbf 4ed2 c73e 3181 533f
00000040: 5a32 99bf 8a40 d53d 9e44 4dbf b80c 7f3f
00000050: 8f9e 0b3f 919f dc3e 355b 50bf 7a58 8b3f
1.1592658 0.4321923 0.1070199 -0.43079278 0.17518753 1.8980297 -0.90399283 -0.95980394
-0.0070852465 0.30896026 -0.10405559 -1.423206 0.71581274 -1.0923415 0.39027637 0.82619005
-1.1968491 0.104127005 -0.80182827 0.9962878 0.54538816 0.4309049 -0.8138917 1.0886376

StatefulPartitionedCall/sequential_1/dense_1_2/BiasAdd/ReadVariableOp:0 f4 [3]
00000000: 1bc0 3bbe adce 7c3e 4c86 f33d
-0.18335001 0.24688216 0.118908495

StatefulPartitionedCall/sequential_1/dense_1/Cast/ReadVariableOp:0 f4 [16, 8]
00000000: 9b60 3c3d fc80 4ebd 9773 243d 9e09 83bd
00000010: 91e7 843d 68c7 193d 5752 a13d 34f6 bf3c
00000020: aa05 e4bb 116b 33bd 4898 f6bb cad4 b9bd
00000030: 5754 18be a472 363e 3b8e bc3d abd1 003d
00000040: 2be6 ca3d 5c20 ce39 eaf8 bebd f93d 1a3b
00000050: 9c94 0b3a 2f9d ceba 3372 f9ba 7940 ca3b
00000060: ff33 333c f74a 7c3d 167b 4e3c 0ef7 b43d
00000070: 3e59 5d3c 367e 293d 3341 71bd acb6 9abd
00000080: 9502 af3b a491 9c3b 53db 243a 28b5 2dbc
00000090: 2cd7 af3d df89 493d 64df 20bd 18b0 9a3b
000000a0: dc40 a7bd 6e25 69bc a5e4 993d e7d9 b6bc
000000b0: 64f2 143c 2df8 2abc 4d93 d7bb a4e1 a23c
000000c0: 088c 42bc 5e0c efbc 6c8a b0bb 3760 2cbd
000000d0: 0f6a 30bd 08b7 94bd 72c0 993d 0662 c53b
000000e0: 4937 2ebc 5b5f 7fbd 6925 42bc 4478 b7bd
000000f0: f9b0 bdbb 1ab9 2abd db88 433d 6cb7 a83d
00000100: e9df 263c 8885 793d c3b9 293c 90f0 ae3d
00000110: 36ec 193c 3093 303d f50d 4dbd d81f a3bd
00000120: 61d8 75bc 716b 8bbc cb43 21bc df2d 8ebc
00000130: df78 0ebd ee87 64bd bf52 653d 164c bbba
00000140: d1fd fd3b a7cf 283e 05cf ce3b ba07 b3bc
00000150: 67c7 da3b 9775 e2bb 9c78 37bd c055 4abd
00000160: ac3a c93d 02c4 0a3a 3f9a babd e3ed ff3a
00000170: d2b2 0abb e40f 13bb 1cf7 933a 6ff5 0a3b
00000180: 218f c4bd 5942 aaba 1f54 b23d b8a7 f6bb
00000190: 9399 5dba 0fe6 953b adc5 1cbb 878a 96bb
000001a0: c9c2 3dbd 765e 593d e514 26bd 6c24 8a3d
000001b0: f004 8fbd d509 1fbd aca2 a3bd 3fd7 d3bc
000001c0: d00d ccbd 4b22 57ba 5171 bf3d c60f 56bb
000001d0: 3722 e8b8 4f27 ea3a 3509 223a ea3f 28bb
000001e0: 98cc c0bd eb2c 20b9 a7dd b33d 3739 b9bb
000001f0: 6923 063b f045 dc3a 04f2 603b f34f 9cba
0.045990568 -0.050415978 0.040149298 -0.06398319 0.0648948 0.037543684 0.07877033 0.023432828
-0.006958683 -0.04380328 -0.0075254776 -0.090737894 -0.14875923 0.1781717 0.09206816 0.031449955
0.09907182 0.0003931549 -0.0932482 0.0023535474 0.0005324574 -0.0015763397 -0.0019031226 0.0061722365
0.01093769 0.06159493 0.012602588 0.088361844 0.0135100465 0.04138013 -0.05890007 -0.07554373
0.005340884 0.004778104 0.00062887854 -0.010602273 0.08585963 0.04920375 -0.039275542 0.004720699
-0.08166668 -0.014230115 0.075143136 -0.0223207 0.009090994 -0.010435146 -0.006578839 0.019882984
-0.011874206 -0.029180702 -0.005387595 -0.042083945 -0.043069895 -0.07261473 0.07507409 0.006023648
-0.010633298 -0.062346797 -0.01184974 -0.08958486 -0.005788919 -0.041680433 0.047737937 0.0823811
0.01018522 0.06091836 0.01035923 0.085419774 0.009394696 0.04310912 -0.05006214 -0.07965058
-0.015005202 -0.017019005 -0.009842823 -0.017355857 -0.03478324 -0.055793695 0.055987116 -0.0014289643
0.0077512045 0.16485463 0.0063112997 -0.02185427 0.0066766026 -0.0069109905 -0.044792756 -0.049398184
0.09825644 0.00052934897 -0.09111451 0.0019525852 -0.0021163714 -0.0022439891 0.0011288854 0.0021203419
-0.09597612 -0.0012989744 0.08707451 -0.007527318 -0.00084533653 0.0045745443 -0.0023921535 -0.0045941505
-0.04632834 0.0530686 -0.04054727 0.06745228 -0.06983364 -0.038827736 -0.079900116 -0.025859473
-0.09963572 -0.0008206709 0.09347785 -0.003266321 -0.00011068995 0.0017864498 0.00061811815 -0.0025672861
-0.09414023 -0.00015275522 0.08782511 -0.0056525725 0.0020467883 0.0016805511 0.003432394 -0.0011925682

StatefulPartitionedCall/sequential_1/dense_1/BiasAdd/ReadVariableOp:0 f4 [8]
00000000: 0648 b83e 2816 f6bd 3aec ac3e 5454 023f
00000010: 204b 903d b724 0f3e 1933 f73e 287a 103e
0.3599245 -0.12015945 0.33773977 0.50909925 0.07045579 0.1397885 0.48281172 0.14109099

StatefulPartitionedCall/sequential_1/batch_normalization_2_1/batchnorm/sub:0 f4 [16]
00000000: 69b6 5140 24d1 03c0 f59e 073e ba51 0f40
00000010: 88c0 2dc0 0b6c a3bf 30dc 923f 6122 81c0
00000020: 202f 2440 8d63 b5bf c17a 7f3f 0a79 0abf
00000030: 3a87 e93e 8e50 cbbf 6f6d ba3e 5730 47be
3.2767584 -2.05964 0.13244231 2.2393632 -2.7148762 -1.2767347 1.1473446 -4.0354466
2.5653763 -1.4171005 0.9979668 -0.5409094 0.45610982 -1.5883958 0.36411616 -0.19452034

StatefulPartitionedCall/sequential_1/batch_normalization_2_1/batchnorm/mul:0 f4 [16]
00000000: 73bf 1241 37d0 ba41 d34f 1942 0d75 cf41
00000010: 59b6 8a41 fc90 1d42 0357 0542 30db d041
00000020: 1a62 9c41 aee7 5b41 e0c1 8041 1ef5 1342
00000030: c34c 1042 c301 3541 f13a 2442 b9cd 1042
9.171741 23.351667 38.327953 25.932154 17.339037 39.391586 33.334972 26.107025
19.547901 13.744062 16.094666 36.989372 36.074963 11.31293 41.05756 36.2009

StatefulPartitionedCall/sequential_1/batch_normalization_1_2/batchnorm/mul:0 f4 [1, 1, 32]
00000000: 39b2 8c41 b0f3 8f40 0962 e240 f017 2f40
00000010: 4439 813f 7fe9 2742 3b52 3342 2896 2740
00000020: 2528 8e41 0bbe a140 3e9d 6c41 5f96 a740
00000030: 4300 2541 f33b 7140 ac30 9141 d913 dd3f
00000040: 958a b440 960a 2342 392a e040 485d 7940
00000050: fd0c a241 ea16 4a40 9da7 9e40 4034 aa40
00000060: fe5e 0941 a207 9140 4e4b 5440 e4a9 6040
00000070: 8b06 3142 4609 3242 6e69 1341 fdb1 9341
17.587023 4.498497 7.074467 2.735836 1.0095601 41.978024 44.830303 2.6185398
17.769602 5.0544486 14.788389 5.237106 10.312564 3.769284 18.148766 1.7271682
5.6419168 40.760338 7.005154 3.8963184 20.256342 3.1576486 4.9579606 5.318878
8.585691 4.5321817 3.3170962 3.5103693 44.25639 44.509056 9.21324 18.461908

StatefulPartitionedCall/sequential_1/batch_normalization_1/batchnorm/mul:0 f4 [1, 1, 64]
00000000: 5065 f340 abc2 6340 fc51 a42b 21d9 3040
00000010: 505b 1341 bbf5 0440 8e99 e341 7412 7640
00000020: 20bc bb41 b772 8140 952a ae40 76ad 9041
00000030: ed01 6a41 0cda 1341 e0f1 3141 b032 9a30
00000040: 0215 a740 9f29 693f 9e32 a840 ecff 2f42
00000050: 6a85 eb40 b440 4241 229a b040 73a7 5340
00000060: 1af0 9e41 7d14 6a40 9959 0d42 6ac4 cf40
00000070: 5d43 6641 7c22 7241 553c 9941 2c15 3b42
00000080: da83 0041 bf30 7040 7884 0842 586e 0840
00000090: 8148 0142 bf2e 0041 5390 0540 1a24 ac40
000000a0: e2ff 3d42 8caa 8940 4654 3540 5c15 0541
000000b0: c2d7 2140 13f0 f941 66a3 5740 3b87 9d40
000000c0: 515b dc40 3b17 bd41 89d5 2442 4b3f 1842
000000d0: 7836 4840 0a19 9840 f863 c840 4902 5240
000000e0: 2373 0d41 0728 b840 31ee 4940 1865 5841
000000f0: 890c f741 40bc d240 dfa7 2941 d0af 0741
7.6061172 3.5587566 1.1675656e-12 2.7632525 9.209793 2.0774982 28.449978 3.8448763
23.466858 4.0452533 5.442698 18.084698 14.62547 9.240734 11.1215515 1.1219381e-09
5.2213144 0.91079134 5.256179 43.999924 7.360036 12.140797 5.518815 3.3070953
19.867237 3.6575005 35.337498 6.4927263 14.391446 15.133419 19.154459 46.770676
8.03219 3.7529752 34.129364 2.1317348 32.320805 8.011413 2.0869339 5.379407
47.499886 4.3020687 2.8332686 8.317715 2.5287938 31.242224 3.369348 4.9227576
6.886147 23.636343 41.20853 38.06181 3.1283245 4.7530565 6.262203 3.2813895
8.84061 5.754886 3.155163 13.524681 30.88112 6.5854797 10.603484 8.480423

R0__88 f4 [1, 128, 32]
00000000: a9a9 c1bd b0b5 b03b 5556 8a3d 3d07 b7be
00000010: 568d 23bf 924f 0bbd 1bb2 45be a305 debd
00000020: bf54 403e 074b 8b3d 2bd6 ff3c c6f5 a9bd
00000030: fe18 1f3e 28eb 543e ff10 adbd 1d34 cf3d
00000040: 37a2 66bc 305b 5ebd b4b2 823e 3305 51be
00000050: 17d6 89bb 23cf b0be b78e 773d d5e4 8abe
00000060: 5a40 da3e ece1 47be ee2c 093e b7f0 07bd
00000070: 7fc6 323e f25c 2ebe e697 a3bd da23 99bc
00000080: 4432 96bd e851 b5be 8bf3 75bd afba a03b
00000090: 01b0 d2bd 78af 8abe 9c9c 98bb 04d3 e23d
000000a0: a99e 8fbd 8a7c 883d d767 153d 1f2b 89be
000000b0: 7482 303e 2e45 6bbe b7f5 a5be e210 343c
000000c0: 5c5f 173d 34fe a83b 8807 683b 8f64 4f3d
000000d0: 817a b3bd 9933 673e b47a f9bd bbfe e7bd
000000e0: 06f7 c5be 6ada 44be fabb 913e 8c9a 0f3f
000000f0: df6d fdbd 399a 8cbc a28c 943d 7c57 8cbd
00000100: 55e3 bebe 0703 18be 9c60 cbbe 6902 8fbe
00000110: ba30 e8bd f639 643e 970e 0b3d 0bc2 7cbd
00000120: 6835 933d 654a b43d 7c1e 373d 854b 8b3e
00000130: 17bf b7bd 1cb4 f2bb 65de f7bd 6dc4 ae3d
00000140: bb58 9ebd 8a8c 5e3e 0446 9fbd 2a23 d4bc
00000150: 79bd 553e 3569 f8bd 45a3 5e3e 4ed1 8dbd
00000160: e9d6 703d 56d1 5d3e 6fa1 3c3e cbda 893c
00000170: 3e4e b23e 1a2f a93e a61c 24be ce80 e5be
00000180: f55b 803e 7a99 853d caa4 063e c156 cd3d
00000190: a3d7 2f3e 1d61 993e 9b59 8a3e 76a6 93bc
000001a0: 29dd cdbc 98c0 96bd e800 a1bd befc f43c
000001b0: 27ab aebd 6f29 fbbd c14a dfbd b18b 25bc
000001c0: 41bc ddbd 6ebc fe3e 6d5e 133d f2d1 d23d
000001d0: 9a35 973d 3f6b 473e 0696 06be ac64 3d3d
000001e0: da25 b2bd 7c8e 1bbe 3bf2 c3bd 39c5 5f3c
000001f0: 5c7b bbbd 63ec cf3e abd4 0f3e acb4 a73c
00000200: f019 8e3e de53 ecbd 8ac2 1b3e 3146 753e
00000210: a00f d93e fbef 983e 77cd 9a3e 0148 96be
00000220: 64a5 633b 9e41 96be 7440 cc3d 8819 443c
00000230: fcf9 8bbe a7d4 8f3c 9918 9abd 5c48 b3be
00000240: 674f bf3e 212e 6a3e 2fab 23be 1219 5e3d
00000250: 6a79 d0bd 76d9 b33e c44f d83d f7cd 753e
00000260: 75e4 a43d 4d79 6cbe e488 0ebe bd02 1bbe
00000270: 1d60 54be 54f3 9b3e c899 2c3d 6b76 2fbc
00000280: 0213 003e b6ea b53d 5e04 bf3c 0b57 54bd
00000290: b2dc 163e 0ad2 a23d e805 f63d 56dd 803c
000002a0: e7b9 0ebe 7a50 8dbe ac02 89bd f7de 94bd
000002b0: 5b11 653d a53d 4b3d d0e1 8fbe d356 59be
000002c0: 1d62 81bd 86d7 be3d 0751 213e ceb6 adbe
000002d0: 70da a6bd 647b 5dbd 0396 533e 0d68 2dbe
000002e0: 3acb 88bd 74af acbe f8ec 76be b65c 073f
000002f0: 8d5f f7bc 318b b23d 5dde 90bb e2a8 0bbe
00000300: ad17 3ebd ee54 16be b3ac e13b fc1f 82bd
00000310: 49c3 3bbd 570c 2ebe 9e13 36be 9c72 34bd
00000320: 182a 00be ed58 fcbe 7460 6cbd fb8d 38be
00000330: 5351 1f3d 76e2 7c3e 89fc 15be 1b07 dfbc
00000340: 1167 793c ce33 13be 4d7d 2e3e 0750 b4be
00000350: 8de4 89be 1964 d4bd ad81 1c3e 0a7b 15be
00000360: deef c53d 4497 83be f77e 44bd 85e6 a73e
00000370: 9829 c2be d56c 82bd 62b7 0a3e 4934 ca3c
00000380: f43d 813d e266 01be f943 213d 9216 bdbe
00000390: 44c5 6fbe d7b7 f03d ee37 1a3e 8d78 e3bd
000003a0: 0130 8e3e b6c3 273e 2148 953d b656 e0bd
000003b0: 19ad 5f3e 0e9f 383e 3664 3d3d 6644 49be
000003c0: e576 94be ca18 53bd 42cf 71be 40f7 bb3e
000003d0: 6f90 223d 3670 0dbe 7066 e03d 58c5 42bd
000003e0: fa3e 01be 90d5 3abd 9911 153e a417 35be
000003f0: 27d5 a43e 1172 943e 2cc5 81bb e0fd c6be
-0.09456188 0.0053927526 0.06754748 -0.3574771 -0.63887537 -0.03401143 -0.19306223 -0.10840919
0.18782328 0.0680142 0.031230053 -0.08298831 0.15536878 0.2079283 -0.084505074 0.10117362
-0.014076761 -0.054286182 0.25526965 -0.2041214 -0.0042064297 -0.34533033 0.060438838 -0.2712771
0.4262722 -0.19519776 0.13396046 -0.033188548 0.17458533 -0.17027643 -0.07987957 -0.018693853
-0.07333806 -0.35414052 -0.060046714 0.004905067 -0.10287476 -0.27086997 -0.004657341 0.11075404
-0.07012684 0.06664379 0.036475983 -0.2679071 0.17237264 -0.22975609 -0.32414028 0.010990353
0.036956176 0.0051572565 0.003540488 0.05063301 -0.087636 0.22578277 -0.12181607 -0.11327883
-0.38665026 -0.19223943 0.28463727 0.56095195 -0.12374472 -0.017163383 0.07253386 -0.06852624
-0.37282816 -0.14844905 -0.39722145 -0.27931526 -0.11337419 0.22287735 0.03394946 -0.06170849
0.07187921 0.08803252 0.044706807 0.27206054 -0.08971994 -0.0074067246 -0.12102965 0.08533559
-0.07731768 0.21733299 -0.07777026 -0.025895674 0.2087306 -0.12129442 0.2174197 -0.06924687
0.058798704 0.21661887 0.18420957 0.016827961 0.3482532 0.33043748 -0.16026554 -0.44824833
0.25070158 0.06523414 0.131488 0.100263126 0.17172103 0.29956904 0.2702149 -0.01802371
-0.025129871 -0.07360953 -0.07861501 0.029905673 -0.085287385 -0.12263762 -0.1090293 -0.010104106
-0.10826922 0.49753135 0.035978723 0.1029395 0.073832706 0.19474505 -0.13143167 0.046238586
-0.08698626 -0.15191072 -0.09567686 0.013657861 -0.09154388 0.40610036 0.1404597 0.020471893
0.27754164 -0.11539434 0.1521093 0.23952557 0.42394733 0.2987059 0.30234882 -0.2935181
0.0034736032 -0.29346937 0.09973231 0.011968978 -0.2733916 0.017557455 -0.07524223 -0.35016143
0.37365267 0.2286916 -0.1598327 0.054223128 -0.10179408 0.35126847 0.10562089 0.2400435
0.08051387 -0.23093148 -0.13919407 -0.15137763 -0.2073979 0.30459082 0.042138845 -0.010709385
0.12507251 0.08882658 0.023317512 -0.051840823 0.14732626 0.07950218 0.12012845 0.015730541
-0.13938104 -0.2760046 -0.06689963 -0.0726909 0.055924755 0.049619336 -0.2810197 -0.21224527
-0.06317542 0.093184516 0.15753566 -0.3392853 -0.081471324 -0.054072753 0.20662694 -0.16934223
-0.066793874 -0.3372761 -0.24113834 0.5287584 -0.03019693 0.08717955 -0.004421039 -0.13638642
-0.046409298 -0.14680836 0.0068870424 -0.06353757 -0.045840535 -0.16996895 -0.17780921 -0.044054613
-0.12516057 -0.49286595 -0.057709172 -0.18022911 0.038895916 0.24695763 -0.14647116 -0.027225068
0.015222327 -0.1437523 0.17039986 -0.35217306 -0.26932183 -0.103706546 0.15283842 -0.14597717
0.09664892 -0.25701344 -0.047972646 0.3279306 -0.3792236 -0.06368414 0.13546517 0.024683135
0.06310645 -0.12636903 0.039371464 -0.36931282 -0.23415095 0.11753815 0.15060398 -0.111069776
0.27771 0.16383252 0.07289148 -0.10954039 0.21843375 0.18029425 0.046238147 -0.19654998
-0.2899696 -0.051537313 -0.23614219 0.36712074 0.039688524 -0.13812336 0.109570384 -0.047551483
-0.1262168 -0.045613825 0.14557494 -0.176848 0.32193872 0.28993276 -0.0039602723 -0.38865566

R0__67 f4 [1, 256, 64]
00000000: 429f 103e 1a77 e03d d842 323c 5f23 473d
00000010: 35c7 5f3e 4b39 9b3e 0469 f0bd 5843 543e
00000020: 2fde a1bd 2945 9dbe 077e c9bd 2c49 7bbe
00000030: ba8a 91be 2044 b1bd d861 233e 8c9e 65bd
00000040: f2b7 cf3e de06 303e 531a 66bd 739e 9f3e
00000050: afdf 983d 0640 d2bd 2758 863c 4d66 12be
00000060: e6db 9fbc 1407 683e d24b 2e3d 4161 33be
00000070: 2e39 32bb 6140 b5bd 362b 363c 9bdf 083e
00000080: fd96 adbc 26ef d8bd 6521 9abd 0f4c 56be
00000090: 9578 0c3e 3232 6ebe 1ff8 03be bc53 3ebd
000000a0: 00be 35be 9a6c 35bd f7a0 7cbe b0f0 d9bc
000000b0: 1566 94bd 5395 06be fbff b4be 4e45 62bd
000000c0: 5ec5 f7ba f815 ce3b 5918 283e dde0 e73c
000000d0: d050 aabd 2e35 afbd 09b2 4f3d 935e c1bd
000000e0: 37d7 49be 4a3b 2cbe bc89 97bc b80d 023d
000000f0: 534d 1a3c 6374 dcbc 56fd 1dbe 3e69 2cbe
00000100: 13db a9bd ae6a a23d a10e 5abe def7 1abf
00000110: d00d 85be 2472 79bd 810d 823d 92c3 053e
00000120: a6f9 73be 6282 4f3e ac03 e4bc fe99 ac3e
00000130: 1f21 d73d 79a4 7f3e f42d 81be 6b1f 013e
00000140: abbd 08be f32e 4fbe 8058 7fbe 7327 2cbe
00000150: 3dbb 0e3f 4968 0ebd e8f5 073e 4136 553d
00000160: e542 4c3e 2c73 babe 337c 2b3d 4c8f 96bc
00000170: bdd5 64bd e4fb 78bd 1d6f 3dbe 8bda 273d
00000180: c2e8 7b3c 3bc1 1b3e b115 ddbd cc8f 9f3e
00000190: f938 a4be b8fa 2a3d 6c86 a93e 7096 653d
000001a0: 9ded b33d 1a65 763d 9be4 cb3e 5e9f 27be
000001b0: e3b7 893d fa0d 8a3e 7417 713e 9b22 983e
000001c0: 39be 0c3f 539c d0be d0f5 b5be 30e8 07bd
000001d0: 75db 82bd 0e4d 96bc 9418 8fbe dd59 cb3d
000001e0: 94bc 0ebd af07 b03e 8922 ac3d 1b38 05be
000001f0: f995 6ebe 3811 ddbb 35e9 443e 2afa cf3c
00000200: 4e2d 143d aae4 70bd 315c 02bf 385a 903e
00000210: 2d1a 8bbc 5227 203e e427 04bf 21ac 243d
00000220: 41a3 7cbe 55ea f5bd 2d27 87bd a05f df3c
00000230: 80bd b4bc 354b 453e b71a ac3e 59be 91be
00000240: 1826 7d3e 6a93 173e 7ba7 f9bd 3056 663e
00000250: 4462 f3bd 3a4b 323d cc33 0dbe 6c85 f63d
00000260: 7894 0a3f b924 113e 1006 83be 797d 27bf
00000270: 05cc 8fbe a503 003e fc14 b7be 0bd9 82bc
00000280: 929d 00be 0088 473d 98b0 31be d9bb 343e
00000290: 26b7 b0bd 5767 8b3d f1ba 623e 9245 483e
000002a0: f810 28be 0bf1 db3d 5d21 0bbe 7072 d53e
000002b0: 5ca5 13be 5de7 edbc 2f09 5d3e 048d e4bd
000002c0: a504 233f 5573 793e 838b b4bc 38e8 773e
000002d0: 3aa8 3dbe de9c b5be 5b11 33be f7a1 a43d
000002e0: ca9b 9fbe d695 313e 1788 f53e aea5 f23d
000002f0: ba2f 79be 6ffb 9abb 7531 afbe ef87 cbbd
00000300: df04 b23d 6695 c33d 5681 9ebe b651 ad3e
00000310: a910 ed3c bcf9 c63e 2ded e3bd 2eac 17bd
00000320: 74f2 8ebd 226d afbd be53 bfbd 7c84 95bd
00000330: 86d0 2fbe 26fb 3cbe 9083 eabd 391b b3be
00000340: d0dd b13e c64b a5bd 9f11 45be 802a 083e
00000350: d5ec 17be dbc4 a43d 2b68 133e 4550 413d
00000360: 9312 4cbb bda2 9d3d 52e7 373c 13cc a8bd
00000370: 9365 3cbe 772d 9a3d 63ad afbe b126 833e
00000380: 2b3f 493e 6770 91bd d57a 013d 8aa0 483e
00000390: 27b4 92bc 249b 8fbd 1b0e d9bd 9849 873d
000003a0: 15c6 44be 61fa 50ba b1ce 36be 9e9b c33e
000003b0: 1104 bcbd 7d7b fabd 107b c1be c151 2cbe
000003c0: 7b7b 75be fea4 4f3e 1f92 873e 63be c03d
000003d0: 69c1 7ebe d21c 42be e3bc 6a3e b7d0 36be
000003e0: 0a27 56be 688e c4bd 5917 7f3e 2e4e e03e
000003f0: ea5a b3be 8b51 073b 1d54 9f3e 1cd6 99bd
0.14123252 0.10960217 0.010880195 0.048617717 0.21853335 0.3031715 -0.1173878 0.20728815
-0.07903706 -0.30716828 -0.09838491 -0.24539632 -0.28426152 -0.08655572 0.15955293 -0.056059405
0.40570027 0.1719012 -0.05617745 0.31175575 0.07464539 -0.10266118 0.016399456 -0.14296837
-0.019514035 0.2265895 0.042552777 -0.17517568 -0.0027194726 -0.0885017 0.011118701 0.13366549
-0.02119016 -0.10592489 -0.07525901 -0.20927452 0.13717873 -0.23261335 -0.1288762 -0.046466574
-0.1774826 -0.044293024 -0.24670778 -0.026604027 -0.07246033 -0.131429 -0.35351548 -0.055241875
-0.0018903424 0.00628924 0.16415538 0.028305465 -0.08316195 -0.08555065 0.050706897 -0.09441867
-0.19711004 -0.16819492 -0.018498294 0.031751364 0.00941785 -0.026910966 -0.15428671 -0.16837022
-0.08293738 0.07930504 -0.21294643 -0.60534465 -0.259871 -0.06089987 0.06350232 0.13062885
-0.23825702 0.20264581 -0.027833782 0.33711237 0.10504364 0.24965085 -0.25230372 0.12609641
-0.13353603 -0.20232753 -0.24936104 -0.16811924 0.5575445 -0.034767423 0.132774 0.052053694
0.19947393 -0.36415994 0.041866492 -0.018378876 -0.0558679 -0.060787097 -0.18499418 0.040979903
0.015375318 0.1521043 -0.10795153 0.31164396 -0.32074717 0.04174301 0.33110368 0.05605167
0.087855555 0.06015501 0.3982285 -0.16369388 0.06724527 0.26963788 0.23544103 0.29713902
0.54977757 -0.40744266 -0.35539103 -0.033180416 -0.06389514 -0.01834729 -0.2794844 0.099292494
-0.03484781 0.34380862 0.084050246 -0.13009684 -0.23299398 -0.0067464374 0.19229586 0.025387842
0.03617602 -0.05881182 -0.5092192 0.2819383 -0.016980255 0.1564 -0.5162337 0.040203217
-0.24671651 -0.12007586 -0.06599269 0.027267277 -0.022063017 0.1926697 0.33614132 -0.28465536
0.24721563 0.14802328 -0.121901475 0.22493815 -0.11883977 0.043528773 -0.1378929 0.12037167
0.54132795 0.14174165 -0.25590563 -0.6542583 -0.28085342 0.1250139 -0.35758197 -0.015972635
-0.12560108 0.048713684 -0.17352521 0.17649783 -0.08628683 0.0680682 0.22141625 0.19557789
-0.16412723 0.10739335 -0.13586946 0.4168887 -0.14418548 -0.029040987 0.21585535 -0.11159709
0.6367896 0.24360402 -0.02203918 0.24209678 -0.18521205 -0.35471243 -0.1748709 0.08038705
-0.31173545 0.17342314 0.4795539 0.11848007 -0.24334612 -0.0047296803 -0.3421742 -0.09938037
0.08692335 0.0954998 -0.3095805 0.33851403 0.028938608 0.38862407 -0.11129222 -0.037029438
-0.06979838 -0.08565737 -0.093421444 -0.0730066 -0.17169389 -0.1845518 -0.11450875 -0.34981707
0.34739542 -0.08071093 -0.19245003 0.13297462 -0.14836438 0.0804536 0.14395206 0.04719569
-0.0031139 0.076970555 0.011224585 -0.08242049 -0.18398122 0.07528203 -0.3431197 0.25615457
0.19653003 -0.07101517 0.031611282 0.19592491 -0.017908169 -0.070120126 -0.105983935 0.06605834
-0.19216187 -0.00079718797 -0.17852284 0.38204664 -0.09180463 -0.12230585 -0.37789202 -0.16828062
-0.23972885 0.20277783 0.2647867 0.094113134 -0.24878468 -0.18956307 0.22923617 -0.17853056
-0.2091333 -0.09597474 0.2491125 0.43809646 -0.350303 0.0020647969 0.3111886 -0.07511541

R0__109 f4 [1, 64, 16]
00000000: 1aad 403d 0910 2b3d 43ae b93e 976b 083e
00000010: f964 873e 8781 3fbd fcce 14bd 427b 8f3d
00000020: 7cc5 88be b7fd 043e a92e 563e 560e 39bd
00000030: b70a e83d 7a01 7c3e 6846 eabd 76d2 d7bd
00000040: 6ad2 853e 38be 893f 75c9 1b3e 8bc4 913d
00000050: ac4a 363f e3cb 35bc 608b 71be 3565 eabd
00000060: 03c0 623e a70a 61bd 318b 78be c664 86bd
00000070: d8bb 873c 38ab ecbd 699c 50be f3d7 04be
00000080: 9c48 c93d 79a2 79bc 49a0 463d 51b2 7ebd
00000090: 8270 f1be 9ecd 15be 6d35 b63e 01c6 9f3c
000000a0: d10a 31bb ce5c 2abd e0fb debe 0463 6bbd
000000b0: 70fd 7abd 9d10 4a3d 8000 e13d 39c3 adbc
000000c0: 0ad4 c93d 10a7 77be 1498 91be 06a3 e3bd
000000d0: 43da 0b3e 08a3 823e 131d 433e 5419 5abe
000000e0: 671e 59be 385f 98bd 4683 c03d 081f 623c
000000f0: 77ee 21bd ff8e 0cbe 42de ef3d 89a2 57bd
00000100: 7863 8ebd 40ba 26bd c486 453e afe1 723d
00000110: fbce c4bd 5c21 bf3d 6440 74be 0b93 9abe
00000120: 8e7d f53d 5b3b 6a3e b006 86be 547d 543e
00000130: 1cb8 7f3d aaa5 a63d 0793 aabc 3692 11bc
00000140: bba5 a2bc b169 2bbe 68d3 01be 823b 4a3e
00000150: ba06 77be bcae 77be b381 2c3c 66da f2bd
00000160: 126b fabd 0bd1 f8be 786c c0bd 9cf1 48be
00000170: 7516 233e 423f 3e3e 73c5 8e3e 0bf6 d83d
00000180: e792 b23e 9f9d 59be 6224 0b3d eba6 95bd
00000190: 499f 04be d229 8bbd 8db6 dc3e 33a2 08bf
000001a0: cd11 adbd 364b 1a3e 7ac5 5ebe 0435 193e
000001b0: 0d75 87be a747 69be ef6a 92bd e312 4ebe
000001c0: adf9 f9bc 780d a1be b6f6 373e db7d ecbe
000001d0: d326 1f3c 7ddd a93e fe5c a8be 5a02 04bc
000001e0: 7b20 99bd 33f4 40bc 4368 fa39 f326 9bbd
000001f0: 4c98 3dbe 4305 a53d fd7a a8bd 27cf e7bd
00000200: e172 b53c 51e0 20be ed4b 94be fea7 7cbe
00000210: fec1 be3e e098 403e c5ca 3b3e fdf3 a43d
00000220: 118f e9bd ebbe b4bd c8b4 963e 9d6a 2e3d
00000230: e490 9ebe 9621 05be 6ee8 1d3e 29f0 8abd
00000240: 3e46 603d 37fa 03be 8748 5cbd bde8 b13e
00000250: 936b 923c 7c0b c5bd 5508 28bd 503a dcbe
00000260: d690 4d3e 05ef a33d e72f 98be 85f2 7bbe
00000270: 7f8f 27bd 59d0 e3bd 9550 babc bbcf 2abd
00000280: a851 51bd be58 bebe 9d9b 71be e238 80be
00000290: 02a6 eebe a37e eb3c eac1 313e 9f91 47bc
000002a0: 2ac1 05bf 7a9e 833e db67 c5bc 995c 293e
000002b0: f34e 57be d2d9 d8be c65b 173e 3a86 433d
000002c0: ee79 073e 1edb 79be ebac 683e 024a 723e
000002d0: c0b5 3cbe 3ab1 2dbd b351 fd3d 05e5 05bf
000002e0: 1105 08be 8b90 4fbe 576b 02bf d33b c6be
000002f0: 3296 fcbb 7d16 ae3e d193 85be 77c2 95bd
00000300: d354 983e e4ac 0c3d 5e1a 1c3e 1fa7 613e
00000310: 1474 6ebe e5c7 7dbe e885 08bd b290 03be
00000320: 7780 22be b7c1 2cbe fd1b 5abe 2ec0 963c
00000330: f128 34bd a6b7 583d 1e19 a1be 0d1c 723e
00000340: aa55 743e 415e 71be bbf7 183e 4bc3 f33d
00000350: a1ee a93e 40b0 243d 755b 62bd 80f1 89be
00000360: 7daf e43d 5453 423c 4943 84bc 0928 acbe
00000370: b9d3 a63b 74b4 79bd 75d5 e73d 7179 a6bd
00000380: 3b01 15bd 8387 0fbe a49d 633e 3bdd 00bd
00000390: 078c 65be de00 80be 4483 833e 1c99 78be
000003a0: 929f b6bd 8bf0 103e a3b4 08be 7d32 ac3c
000003b0: 73d1 c33d 9d60 db3d 4451 86bd 2ac4 103e
000003c0: d8d8 9b3e d49c 0dbe db24 c9bc 8dac 313e
000003d0: fcbc 4ebe 7e0a 9cbe 51ca 853e 694c b3be
000003e0: fd82 3abe 17f7 9dbe 7475 a0be 04ea eabd
000003f0: 7c96 7d3e c679 e93d 032b d03d bb37 1bbd
0.047040083 0.04176334 0.36265764 0.13322292 0.26444224 -0.046754386 -0.03633021 0.070059314
-0.2671317 0.1298741 0.20916237 -0.045179687 0.11330169 0.24609938 -0.1143921 -0.10538189
0.26137096 1.0761175 0.15213569 0.07117566 0.7120769 -0.011095974 -0.23588324 -0.11445085
0.22143559 -0.0549418 -0.24271847 -0.0656219 0.016569063 -0.11556095 -0.20372166 -0.12973003
0.09828302 -0.01523649 0.048492704 -0.062181775 -0.4715615 -0.14629218 0.35587636 0.019503595
-0.0027014504 -0.04159241 -0.4355154 -0.057467476 -0.061276853 0.04933225 0.109864235 -0.021211253
0.09854896 -0.24184823 -0.2843634 -0.11115079 0.13657479 0.25515008 0.1905406 -0.21298724
-0.21203004 -0.074400365 0.094000384 0.013801344 -0.03953406 -0.13726424 0.11712314 -0.05264524
-0.06952566 -0.040704966 0.1928969 0.05929726 -0.09609791 0.09332535 -0.23852688 -0.3019031
0.11986838 0.22874205 -0.26176977 0.20750934 0.06243144 0.08137067 -0.020822061 -0.008884957
-0.019854417 -0.16739537 -0.12678301 0.19749263 -0.2412366 -0.2418775 0.01052897 -0.118580624
-0.12227453 -0.48596987 -0.09395689 -0.19623417 0.15926535 0.18578818 0.27885017 0.10593804
0.34877703 -0.21251534 0.033970244 -0.07307228 -0.12951387 -0.06795086 0.43108025 -0.53372496
-0.08450661 0.15067753 -0.21755019 0.1496163 -0.2645649 -0.2278124 -0.07149302 -0.20124392
-0.030514563 -0.31455588 0.17965207 -0.4618977 0.009713846 0.33176795 -0.32883447 -0.008057201
-0.07476898 -0.011776972 0.00047761397 -0.07575788 -0.18515128 0.08057644 -0.08226583 -0.11318808
0.022149505 -0.1571057 -0.28964177 -0.24673459 0.3725738 0.18808317 0.18339069 0.080543496
-0.11404241 -0.08825477 0.294348 0.042582143 -0.30969918 -0.13001093 0.15420696 -0.06784088
0.05475449 -0.12888418 -0.053780105 0.34747878 0.017873561 -0.09621331 -0.04102357 -0.4301324
0.20074782 0.08004574 -0.29724047 -0.24604233 -0.040908333 -0.111237235 -0.022743503 -0.041702013
-0.051103264 -0.3717708 -0.23594518 -0.25043398 -0.4661103 0.028746909 0.17359129 -0.012180715
-0.5224787 0.25706846 -0.024097374 0.1653923 -0.2102621 -0.42353684 0.14781103 0.04773543
0.13230106 -0.24399993 0.22722213 0.23661044 -0.18428707 -0.042405345 0.123690985 -0.5230258
-0.13283183 -0.20269983 -0.5094504 -0.38717517 -0.0077083344 0.34001532 -0.26089337 -0.07312482
0.29752216 0.03434457 0.15244433 0.22036408 -0.23286468 -0.24783285 -0.033330828 -0.12848166
-0.15869318 -0.16870771 -0.21299739 0.018402185 -0.043984357 0.052909516 -0.31464475 0.23643513
0.23860803 -0.23571111 0.14938252 0.119024836 0.33189872 0.040207148 -0.055263 -0.26942062
0.11166284 0.011860687 -0.016145365 -0.33624294 0.0050911573 -0.06096311 0.113200106 -0.08128632
-0.036378127 -0.14016537 0.22228104 -0.03146098 -0.22416697 -0.25000662 0.25686085 -0.24277157
-0.08917154 0.1415426 -0.13350157 0.021020168 0.09561434 0.10711787 -0.06558469 0.1413733
0.30438876 -0.13829356 -0.024553707 0.17350979 -0.2018928 -0.30476755 0.26130918 -0.35019234
-0.1821403 -0.30852577 -0.3133961 -0.11470416 0.24764436 0.114001796 0.10164454 -0.037894946
